stackoverflow_model.pkl (torch, 102192 bytes, 4 tensors)

0.weight f4 [5, 5000]
0	0x3afe6bff	0.0019410847
1	0x39b2a676	0.0003407483
2	0xbbd1e855	-0.00640587
3	0xbc4bd23d	-0.012440261
4	0xbbb75a26	-0.0055954633
5	0x3a63e8f9	0.00086940784
6	0x3c345f8a	0.011009106
7	0x3beb4198	0.0071794502
8	0x3c4634ab	0.012097518
9	0xb78eb181	-1.7010376e-05
10	0xba3e7cdd	-0.0007266531
11	0x3c5707b1	0.013124392
12	0x3c80fa41	0.01574433
13	0xbbb224a0	-0.005436495
14	0x3c54414e	0.012955023
15	0xbc3b0216	-0.011414072
16	0xbc3e085b	-0.011598672
17	0xbc43dd10	-0.011954561
18	0xbc1a1617	-0.009404681
19	0xbc14c993	-0.009081262
20	0xbb31346c	-0.0027039303
21	0xbc2653f2	-0.01015185
22	0x3c2af2a2	0.010433825
23	0x3a9e9a77	0.0012100477
24	0xbc2b64c5	-0.010461037
25	0x3c10c3f6	0.008835783
26	0xba896d30	-0.0010484811
27	0xba9341eb	-0.0011234855
28	0xbc3b88fd	-0.011446235
29	0x3c18ff3a	0.0093381945
30	0xbb5ab027	-0.0033369155
31	0xbc1c2eaf	-0.009532615
32	0xbba9c9a0	-0.0051815063
33	0x3c4b49a1	0.012407691
34	0x3bb47b80	0.0055078864
35	0xbc62c612	-0.013841169
36	0x3c42ca28	0.011889018
37	0x3b49f3e8	0.0030815545
38	0xbbe94e38	-0.00711992
39	0x3c4c4249	0.0124669755
40	0xbbf01c06	-0.0073275594
41	0x3b0a17b2	0.0021071252
42	0x3c255456	0.010090908
43	0x3acb5430	0.0015512761
44	0x3c55805a	0.01303109
45	0x3c3f7106	0.011684662
46	0xbb8110db	-0.003938777
47	0x3b8e8591	0.0043494185
48	0xbc10ac5b	-0.008830155
49	0x3c25a90e	0.010111107
50	0x3c3a65d4	0.011376817
51	0xbb884a09	-0.0041592163
52	0xbc26da8f	-0.010183944
53	0xbc0e4c13	-0.00868513
54	0xbc32730b	-0.010891686
55	0xbbc0af39	-0.005880263
56	0xbb1fbff5	-0.002437589
57	0xbb1847ee	-0.0023236233
58	0x3c463868	0.012098409
59	0x3ba26fd3	0.004957178
60	0x3c47289a	0.012155676
61	0xbc02c8d9	-0.007982456
62	0x3c83b71c	0.016078524
63	0xb9663725	-0.00021955052
64	0xbc14b1ce	-0.009075595
65	0xbaf29e90	-0.001851039
66	0xbb96e1af	-0.0046045403
67	0x3b68efac	0.0035543246
68	0x3c231256	0.009953102
69	0xba6ce2ef	-0.0009036501
70	0x3abc4bf3	0.0014365896
71	0xbb17409b	-0.002307928
72	0x3bf03ad0	0.0073312297
73	0x3bdde2fe	0.0067714443
74	0x3bdf2300	0.0068095922
75	0x3c04da98	0.008108757
76	0x3c0aefcc	0.008480024
77	0xbc0bc4f4	-0.008530844
78	0x3c233bb6	0.009962967
79	0x3ba21a6a	0.0049469965
80	0xbb59177d	-0.0033125572
81	0xbc146bee	-0.009058936
82	0x3c59ff5a	0.013305509
83	0x3bbd9651	0.0057857414
84	0x3bc2cc56	0.005944769
85	0xbc31edac	-0.010859888
86	0x3c24713a	0.010036761
87	0x3a033643	0.0005005339
88	0x3c8213c7	0.015878571
89	0xbc4920ba	-0.012275869
90	0x3b56073f	0.0032658128
91	0xbb9dc410	-0.0048146322
92	0xbbbb5718	-0.0057171695
93	0xbc29ccf4	-0.010363806
94	0xbb45a441	-0.0030157717
95	0x3c2c31df	0.010509937
96	0x3c7c6a7c	0.015406247
97	0xbb6cb081	-0.0036115947
98	0xbbe4aa4c	-0.006978309
99	0x3c61cd87	0.013781912
100	0x3b67cf43	0.003537134
101	0xba57b8fe	-0.0008229165
102	0xbc553b4e	-0.013014628
103	0x3c0d532c	0.008625787
104	0x3c16d9ca	0.009207198
105	0x3bef645f	0.0073056663
106	0x3b135822	0.0022482951
107	0xbc5c80eb	-0.013458471
108	0xbb996e2f	-0.0046823244
109	0x3bf43e53	0.0074537187
110	0xbc65a0d5	-0.014015396
111	0x3b4629fc	0.0030237427
112	0xbc01647d	-0.007897493
113	0x3c2f1891	0.010687009
114	0x3c352fc4	0.0110587515
115	0xbbe7f70a	-0.00707901
116	0xbaf3e531	-0.0018607733
117	0xbc402c06	-0.011729246
118	0x3c2a4e25	0.010394608
119	0x3bd4641f	0.006481662
120	0x3bc237e5	0.0059270733
121	0xbc0102c9	-0.007874199
122	0x3c0a2558	0.008431755
123	0x3c1149dd	0.008867708
124	0x3be73493	0.007055828
125	0xbaa620f8	-0.001267462
126	0x3bef0def	0.007295362
127	0x3b7ccf63	0.003857576
128	0xbc23cca4	-0.009997521
129	0x3c598b98	0.013277911
130	0xbc32aa57	-0.01090487
131	0x3b81b637	0.0039584893
132	0x3a128696	0.0005589513
133	0x3c76892b	0.015047352
134	0x3c3908d6	0.011293611
135	0x3c578828	0.013155021
136	0xbbda0942	-0.0066539356
137	0xbb092ce9	-0.002093131
138	0xbc27be13	-0.010238188
139	0xbc508088	-0.012725957
140	0xbab4d696	-0.0013796862
141	0x39ab7b2b	0.0003270743
142	0x3c14d76b	0.009084563
143	0x3b98384b	0.0046453825
144	0x3b1588ca	0.0022817128
145	0x3c0c841d	0.00857642
146	0xbbf3ba90	-0.0074380115
147	0xbb70b399	-0.0036728142
148	0xbbc51adf	-0.006015166
149	0xbc379835	-0.011205723
150	0xbc213d5e	-0.009841291
151	0xbc1f6b11	-0.009730116
152	0x3a18f7b8	0.0005835253
153	0x3b6c5311	0.0036060254
154	0x3bac9b01	0.0052675013
155	0x3c2f7af0	0.010710463
156	0x3c540f71	0.012943135
157	0xbc33361f	-0.010938196
158	0xbc0522ec	-0.008126002
159	0xb9dd5a77	-0.00042219806
160	0x3a9d2f86	0.0011992313
161	0xbb18ee13	-0.0023335263
162	0x3c772f17	0.015086911
163	0xbc2b31d6	-0.0104488935
164	0xbb801ae2	-0.0039094547
165	0x3af0ef0a	0.0018381786
166	0x3acf8379	0.0015832029
167	0x3c3146e5	0.010820125
168	0x3c124a92	0.008928912
169	0x3c3ec0f7	0.011642686
170	0x3bcd5bdd	0.0062670545
171	0xbc1814b4	-0.00928228
172	0x3c2c1a6b	0.010504345
173	0x3b18d545	0.0023320478
174	0xb9401afc	-0.000183206
175	0x3bfdef5a	0.00774948
176	0xbc06fd44	-0.008239094
177	0xbbeb932a	-0.007189174
178	0xb98ccc68	-0.00026855175
179	0x3b34f3a9	0.0027611053
180	0xbc2d897f	-0.010591864
181	0xbb84715b	-0.0040418333
182	0xbb7fa726	-0.003900954
183	0xbb167b0c	-0.0022961525
184	0x3b83ebde	0.0040259203
185	0xbc49545e	-0.012288181
186	0x3ab05cd1	0.0013455396
187	0x3b55df9f	0.003263451
188	0x3b80523d	0.0039160536
189	0xbb7f57d0	-0.0038962252
190	0x3bdb7c5e	0.0066981753
191	0xbb982e55	-0.004644195
192	0xbc4367ac	-0.011926573
193	0x3ac5db97	0.001509535
194	0x3a418c08	0.0007383232
195	0xbac9f362	-0.0015407617
196	0x3a115258	0.0005543581
197	0xbc29786b	-0.010343651
198	0xbb63bcb9	-0.0034749939
199	0xbc057090	-0.008144513
200	0xbb07eb9c	-0.00207398
201	0xbb58625e	-0.0033017616
202	0xb9868ee2	-0.00025664928
203	0x3bed7211	0.007246264
204	0x3c5cb067	0.013469792
205	0x3b0436dd	0.0020174303
206	0xbc320aa4	-0.010866795
207	0xbc12acbb	-0.008952315
208	0x39f077d2	0.0004586564
209	0x3ac92f65	0.0015349208
210	0x3c67e568	0.014153816
211	0xbc1fca12	-0.009752767
212	0xbc2675ea	-0.010159949
213	0x3c3648f3	0.011125791
214	0x3c264dc7	0.0101503795
215	0x3c25c899	0.010118627
216	0xbc51e86a	-0.0128117595
217	0x3c2b33e6	0.010449385
218	0xbc23a81b	-0.00998881
219	0x3c1d35fd	0.009595391
220	0xbc3f0a04	-0.011660103
221	0xbc49e102	-0.012321712
222	0xbb958a1c	-0.004563583
223	0x3a444d34	0.0007488311
224	0x3bc3205d	0.0059547857
225	0xbb24b43d	-0.0025131844
226	0xbb7641b8	-0.0037575793
227	0x39cf6359	0.00039556136
228	0x3c3df45f	0.011593907
229	0xbc53b8cd	-0.012922478
230	0xbc17b2b5	-0.009258916
231	0x3be22dd9	0.006902438
232	0xbbee8932	-0.0072795385
233	0xbb26d9d5	-0.0025459428
234	0xbc57e36c	-0.01317678
235	0xbc0bb531	-0.008527086
236	0xbc0e5775	-0.008687844
237	0xbb535ed7	-0.0032252574
238	0xb910a061	-0.00013792656
239	0x3b974600	0.004616499
240	0xbb3f78a2	-0.002921619
241	0x3af890d7	0.0018964064
242	0x3c34be22	0.011031659
243	0xbb952468	-0.004551459
244	0xbb17f3ce	-0.002318609
245	0x3c4bc447	0.012436933
246	0xbbe8fc93	-0.0071101873
247	0xbb804289	-0.0039141816
248	0x3c479983	0.012182596
249	0x3be57114	0.0070020054
250	0xbc2eb664	-0.0106636025
251	0x3bad48d8	0.0052882247
252	0xb9c4ffeb	-0.00037574707
253	0x3c3a13bc	0.011357244
254	0xbb301928	-0.0026870463
255	0xbbce90ef	-0.0063038985

0.bias f4 [5]
0	0x3d80a02b	0.062805496
1	0x3d7fd278	0.062456578
2	0x3cd536cd	0.026027108
3	0x3dc737f3	0.09727468
4	0x3d7f1583	0.062276375

2.weight f4 [5, 5]
0	0xbde3169d	-0.110882975
1	0x3e1ecc95	0.1550773
2	0x3e4e7ee9	0.201656
3	0x3e32fd3c	0.17479414
4	0x3e10a631	0.14125897
5	0xbb13279a	-0.0022454024
6	0x3ec2c2fa	0.3803938
7	0x3ea031a0	0.3128786
8	0x3eeb42ef	0.45949504
9	0xbea3ea40	-0.32014656
10	0x3e96ad91	0.29429296
11	0xbeeae843	-0.45880327
12	0xbed2735b	-0.41103634
13	0x3eadd112	0.3394857
14	0x3e46ecc4	0.19426256
15	0xbe8f25a5	-0.27958408
16	0x3e8b05fb	0.27153
17	0x3e670886	0.22561845
18	0xbe90d8c1	-0.2829037
19	0xbe8a97b8	-0.27068877
20	0x3e7754f5	0.24153502
21	0xbe07bf9d	-0.13256688
22	0x3ec588de	0.38580984
23	0x3e9e3c9d	0.3090562
24	0xbea18370	-0.3154559

2.bias f4 [5]
0	0xbdaf3610	-0.085552335
1	0xbda46845	-0.080277
2	0xbd834acf	-0.06410753
3	0xbbf8dc86	-0.007594648
4	0xbd836c4a	-0.06417139
